model2.tflite (tflite, 117968 bytes, 16 tensors)

sequential/batch_normalization_1/FusedBatchNormV3 f4 [64]
-0.063742325 -0.39650548 0.042886663 0.08952013 0.012049976 -0.15265904 -0.06376508 0.025190726
-0.42009547 -0.00067760795 -0.21408558 -0.10634202 -0.12612607 -0.0680995 0.1041294 -0.06273825
0.026330926 -0.07087555 -0.013743395 0.06910438 0.006025574 -0.29161558 0.54422873 -0.18115966
0.04808806 -0.06633034 -0.73373973 0.12428281 -0.029425358 -0.058515303 -0.07778455 -0.10320442
-0.06489203 -0.34879535 -0.4578052 0.05609115 -0.5096031 0.028922534 -0.41703716 -0.03593511
-0.27922454 -0.26228586 -0.1531341 0.026865121 0.009153226 0.033283316 0.03276956 -0.007970962
-0.036674995 0.018665647 -0.035533547 -0.2763133 -0.10561025 -0.11735704 -0.872524 0.039358843
-0.4706571 0.25096232 -0.22549482 -0.025108077 -0.21686673 0.024539798 0.13125972 0.0059363986
00000000: 568b 82bd c402 cbbe eda9 2f3d 5456 b73d
00000010: 436d 453c a752 1cbe 4497 82bd c85c ce3c
00000020: c116 d7be 80a1 31ba 4039 5bbe d8c9 d9bd
00000030: 3127 01be c077 8bbd cb41 d53d e97c 80bd
00000040: f4b3 d73c 3327 91bd fa2b 61bc 9986 8d3d
00000050: 2e72 c53b a34e 95be 9352 0b3f eb81 39be
00000060: fcf7 443d 34d8 87bd 5ed6 3bbf fc87 fe3d
00000070: 730d f1bc bead 6fbd 824d 9fbd d75c d3bd
00000080: 1de6 84bd 4e95 b2be 7165 eabe d5bf 653d
00000090: 5975 02bf f3ee ec3c e585 d5be b230 13bd
000000a0: 85f6 8ebe 554a 86be 2fcf 1cbe 3e14 dc3c
000000b0: 6af7 153c 1654 083d 6039 063d a398 02bc
000000c0: 8538 16bd b3e8 983c a08b 11bd f078 8dbe
000000d0: 304a d8bd e358 f0bd bc5d 5fbf bd36 213d
000000e0: f8f9 f0be 227e 803e 1de8 66be 74af cdbc
000000f0: 5012 5ebe b007 c93c f368 063e 1f86 c23b

sequential/batch_normalization_1/FusedBatchNormV31 f4 [64]
51.82748 0.108283445 0.0001968778 0.021907056 26.964264 0.0003751944 0.052253176 0.16070364
0.07518081 0.00014074943 0.0172276 0.0015815023 0.0055656256 0.00010324812 30.36551 32.99712
27.845333 0.0009225684 21.023447 14.483999 22.916464 0.0020375457 44.809254 0.21884507
28.805105 0.002378067 0.06231005 -2.8962428e-05 0.0042895717 0.00011819127 29.39884 28.882942
40.76614 0.004752212 0.013234608 28.624401 0.013522566 7.733939 0.07714636 9.104816
0.001706123 0.012625703 0.054122105 0.16322637 28.692595 0.00032915498 30.599142 25.52334
40.337715 29.723753 0.13305913 0.086988494 0.010623639 0.02108072 0.0036497398 0.0001362043
0.026100278 -0.00046400083 0.0036073134 -7.114904e-05 0.0057344954 29.077671 0.0023044583 28.791662
00000000: 574f 4f42 b6c3 dd3d fb70 4e39 6d76 b33c
00000010: d0b6 d741 bdb5 c439 6d07 563d 7f8f 243e
00000020: 66f8 993d 2396 1339 e520 8d3c 694a cf3a
00000030: da5f b63b ea86 d838 91ec f241 0dfd 0342
00000040: 3ec3 de41 84d8 713a 0530 a841 76be 6741
00000050: eb54 b741 5888 053b ad3c 3342 ec18 603e
00000060: db70 e641 58d9 1b3b d338 7f3d 57f4 f2b7
00000070: 898f 8c3b 74dd f738 d330 eb41 4410 e741
00000080: 8710 2342 72b8 9b3b f8d5 583c c6fe e441
00000090: c18d 5d3c 6e7c f740 e9fe 9d3d 54ad 1141
000000a0: fd9f df3a 09dc 4e3c 24af 5d3d d024 273e
000000b0: 6f8a e541 6f92 ac39 0bcb f441 cd2f cc41
000000c0: d259 2142 3fca ed41 a740 083e 0627 b23d
000000d0: c60e 2e3c 79b1 ac3c 7930 6f3b 10d2 0e39
000000e0: 40d0 d53c 2345 f3b9 ad68 6c3b da35 95b8
000000f0: 6fe8 bb3b 129f e841 6506 173b 5355 e641

sequential/batch_normalization/FusedBatchNormV3 f4 [32]
-0.051277936 0.012457588 -0.333888 0.021609584 0.020185858 -0.653909 -2.9000242 -4.737554
-0.552725 -2.8189967 0.004223486 -1.9616666 -0.0065883654 -3.8996944 0.06956748 0.021458412
-4.355287 0.002017592 -0.93886834 -0.049214315 -0.016592598 -2.1926796 -0.0042391783 0.037123755
-0.06698086 0.64258736 -4.070358 0.057621635 -0.016841667 -3.5016325 -0.0041086115 -0.025223278
00000000: d008 52bd e91a 4c3c 5ef3 aabe 9506 b13c
00000010: d05c a53c 9566 27bf ff99 39c0 0b9a 97c0
00000020: 637f 0dbf 716a 34c0 2b65 8a3b e417 fbbf
00000030: 37e3 d7bb 9894 79c0 6579 8e3d 8dc9 af3c
00000040: 835e 8bc0 9439 043b ad59 70bf f394 49bd
00000050: 33ed 87bc dd54 0cc0 cee8 8abb 140f 183d
00000060: 432d 89bd 9b80 243f 5f40 82c0 aa04 6c3d
00000070: 89f7 89bc bf1a 60c0 88a1 86bb 0ca1 cebc

sequential/batch_normalization/FusedBatchNormV31 f4 [32]
28.813406 32.028748 0.008518487 31.05919 29.723145 29.729315 0.0055482346 0.0068017608
0.006015238 0.010544968 28.624903 0.004232311 33.519485 0.006715954 33.080303 29.751566
0.013354507 -0.0025547538 0.03218388 18.132626 29.690523 0.016919352 29.49214 30.815752
30.42213 20.461205 0.0056929966 34.04003 26.219566 0.008420136 31.531126 29.723734
00000000: db81 e641 701d 0042 2091 0b3c 3979 f841
00000010: 00c9 ed41 a3d5 ed41 f7cd b53b 4ee1 de3b
00000020: 791b c53b cdc4 2c3c cdff e441 33af 8a3b
00000030: f413 0642 8111 dc3b 3b52 0442 3503 ee41
00000040: ddcc 5a3c a86d 27bb 3fd3 033d 9e0f 9141
00000050: 3186 ed41 749a 8a3c e7ef eb41 a986 f641
00000060: 8660 f341 8cb0 a341 518c ba3b fe28 0842
00000070: acc1 d141 9cf4 093c bf3f fc41 35ca ed41

sequential/dense/BiasAdd/ReadVariableOp f4 [512]
-0.19912234 -0.7957218 0.3923521 -0.5194174 -0.12693699 -0.53173083 -0.43544823 -0.3727484
-0.62052035 -0.30587938 -0.40834466 -0.20391454 0.095854916 0.33150446 -0.1300567 -0.48705465
-0.72416073 0.12816943 -0.30351335 -1.0968094 -0.5870143 -0.7617127 -0.69975734 -0.42915896
-0.6470668 -0.8667046 0.26229718 -0.34787 0.5769569 -0.9790686 -0.42442557 -0.708654
-0.2531255 1.0371537 -0.28708714 -0.49928313 0.43143857 -0.5960185 -0.13062602 -0.8057331
-0.30317968 -0.7458053 -0.6557337 -0.08487486 -0.81394273 0.7271951 -0.7445439 -0.31261533
0.024149712 -0.46577045 0.047044232 -1.1198822 -0.21016379 -0.37456447 -0.40744603 -0.4279475
-0.76405877 -0.36392105 -0.7239036 -0.29043525 -0.96756697 -0.42975384 -0.91989166 -0.7432208
-0.38142508 -1.0436007 -1.0668477 -0.64919376 0.9567397 -1.0692441 -0.58291435 -0.6139781
-0.4047337 -0.6925734 -0.90824217 0.9898128 -0.29533592 0.23467593 -0.22306515 -1.2724904
-0.51858354 -0.40901864 -0.6924949 -0.76183647 -0.9302469 -0.5109456 0.14797 -1.0218502
-0.27678588 0.05929446 -0.29172888 -0.5952531 0.33561885 -0.33085653 0.27739885 -0.72639936
-1.439951 -0.31595087 -0.6561551 -0.3984606 -0.33170462 -0.33682713 -0.27731144 0.46412623
-0.76447797 -0.21620364 -0.62186974 -0.32837936 -0.059698187 -0.74197966 -0.55065614 -0.26634085
-0.5899305 -0.85811114 -0.8157321 -0.29900786 0.0018958395 -0.26734063 -0.43300924 -0.7125753
-0.25218523 -0.41333574 -0.93200386 -0.54598725 -0.30900785 -0.28724968 0.35559237 -0.3658932
-0.43730125 -0.5543119 -0.25617266 -0.9085126 -0.7894933 -1.0678319 -0.4226758 -1.4618345
-0.45038757 -0.5417993 -0.5537772 -0.21495086 -0.4637462 -0.08748457 -0.35199746 -0.74337286
-0.8962587 -0.37347385 -0.25610602 -0.2891852 -1.1309694 -0.60395956 -0.9984614 -0.0013616073
-0.67068017 -0.86548257 -0.68184423 1.0434942 -0.41137588 -0.06706544 -0.5765516 0.4750988
-0.7754197 0.09291537 -0.13864176 -0.8238941 -0.56394327 -1.471136 -0.826263 -0.43265593
-0.2507526 -0.7476248 -0.33027235 0.36679992 -0.63953286 0.104232565 -0.79733396 -0.3270584
-0.23001587 -0.52288365 -0.8028231 -0.5169727 -0.69507074 -0.31846493 -0.3214595 -0.26075077
-0.23432711 -0.69181424 -0.8936292 -0.38781744 0.18544607 -0.54435885 -0.9301316 -0.5351033
-0.32669607 -0.5064305 -0.9420067 -0.5258288 -0.38206366 -0.33295053 0.4160234 0.8557931
-1.2086185 -0.30969557 -1.2582787 -0.3335783 0.23488805 -0.44549677 -1.3335958 -0.5506769
0.4452485 -0.30179322 -0.29015154 -0.23276326 0.5357705 0.17785564 -0.90720695 -0.35511404
-0.25341597 -0.36866307 -0.08354789 0.1377233 -1.0013762 -0.53419954 -0.17332529 -0.34392628
0.28894967 -0.71930814 -0.2936266 -0.3656436 -1.0582854 -0.68424547 -0.36994153 0.68440056
-0.10340293 -0.66376835 -0.25660083 -0.05044794 -0.6328044 -0.04891242 -0.37054077 0.8646711
-0.27702972 -0.4065348 -0.95847017 -1.1555887 -0.5482504 -0.32710022 -0.73703647 -0.7063832
-0.29121986 0.43442538 -0.53739876 -0.8016344 -0.27475768 -0.25887498 -0.6934117 -1.4885244
00000000: bae6 4bbe 6db4 4bbf 60e2 c83e 8af8 04bf
00000010: c5fb 01be 831f 08bf 12f3 debe e1d8 bebe
00000020: 6cda 1ebf 399c 9cbe 8d12 d1be f9ce 50be
00000030: 954f c43d f4ba a93e 952d 05be 3a5f f9be
00000040: 9962 39bf d93e 033e 1a66 9bbe 4064 8cbf
00000050: 9246 16bf 9aff 42bf 4c23 33bf b9ba dbbe
00000060: 2ba6 25bf 5ae0 5dbf d14b 863e 041c b2be
00000070: 73b3 133f 3da4 7abf 4f4e d9be 596a 35bf
00000080: aa99 81be 74c1 843f 16fd 92be 0aa2 ffbe
00000090: 84e5 dc3e ab94 18bf d4c2 05be 8644 4ebf
000000a0: 5e3a 9bbe 19ed 3ebf 2ade 27bf dfd2 adbd
000000b0: 8d5e 50bf 7529 3a3f 6e9a 3ebf 1e0f a0be
000000c0: 9ed5 c53c 7779 eebe 74b1 403d 4d58 8fbf
000000d0: 2d35 57be eac6 bfbe c49c d0be ef1b dbbe
000000e0: 5b99 43bf dc53 babe bf51 39bf eeb3 94be
000000f0: 78b2 77bf b208 dcbe 057e 6bbf b843 3ebf
00000100: 264a c3be b594 85bf 778e 88bf 9031 26bf
00000110: e5ec 743f fedc 88bf e039 15bf ab2d 1dbf
00000120: 4139 cfbe 7e4c 31bf 8f82 68bf 5f64 7d3f
00000130: 4536 97be e34e 703e 316b 64be f7e0 a2bf
00000140: e4c1 04bf e46a d1be 5947 31bf b707 43bf
00000150: a924 6ebf 55cd 02bf 7385 173e fdcb 82bf
00000160: e1b6 8dbe bfde 723d 7d5d 95be 8262 18bf
00000170: 3cd6 ab3e 0766 a9be 3907 8e3e 4ff5 39bf
00000180: 5050 b8bf 50c4 a1be c8f9 27bf 0703 ccbe
00000190: 30d5 a9be 9b74 acbe c4fb 8dbe f4a1 ed3e
000001a0: d4b4 43bf 7d64 5dbe db32 1fbf 5721 a8be
000001b0: 1686 74bd 61f2 3dbf cdf7 0cbf d45d 88be
000001c0: af05 17bf 2cad 5bbf d2d3 50bf 8f17 99be
000001d0: d17d f83a dfe0 88be 63b3 ddbe 566b 36bf
000001e0: 6c1e 81be bea0 d3be ce97 6ebf d2c5 0bbf
000001f0: 4736 9ebe 6412 93be 3410 b63e 5a56 bbbe
00000200: f3e5 dfbe 62e7 0dbf 1029 83be 4894 68bf
00000210: 3c1c 4abf b7ae 88bf f668 d8be 651d bbbf
00000220: 3399 e6be 5cb3 0abf 58c4 0dbf 141c 5cbe
00000230: 2470 edbe 1c2b b3bd 0339 b4be af4d 3ebf
00000240: 3671 65bf f737 bfbe 5420 83be 1510 94be
00000250: 9bc3 90bf 189d 1abf 2b9b 7fbf f677 b2ba
00000260: b2b1 2bbf 4490 5dbf 588d 2ebf 3891 853f
00000270: dc9f d2be 9b59 89bd e398 13bf 2640 f33e
00000280: e881 46bf 6a4a be3d 1bf8 0dbe b9ea 52bf
00000290: 965e 10bf 2f4e bcbf f985 53bf 1485 ddbe
000002a0: a562 80be 5764 3fbf 7519 a9be 33cd bb3e
000002b0: 6db8 23bf e277 d53d 141e 4cbf 3374 a7be
000002c0: 4889 6bbe b4db 05bf d185 4dbf 5358 04bf
000002d0: 28f0 31bf d60d a3be 5796 a4be 2081 85be
000002e0: 72f3 6fbe bd1a 31bf e2c4 64bf 0290 c6be
000002f0: 93e5 3d3e 1a5b 0bbf 1b1d 6ebf 88fc 08bf
00000300: b544 a7be 6ea5 01bf 5a27 71bf b79c 06bf
00000310: d99d c3be 7e78 aabe 0501 d53e 4215 5b3f
00000320: 03b4 9abf 6b90 9ebe 470f a1bf c6ca aabe
00000330: 7e86 703e 2718 e4be 44b3 aabf 29f9 0cbf
00000340: 9df7 e33e a484 9abe be8e 94be 7e59 6ebe
00000350: 4128 093f ca1f 363e b73e 68bf 82d1 b5be
00000360: bdbf 81be 68c1 bcbe 281b abbd 5607 0d3e
00000370: 182d 80bf 4dc1 08bf 2f7c 31be 1b17 b0be
00000380: 36f1 933e 9424 38bf 3a56 96be a335 bbbe
00000390: e575 87bf b62a 2fbf fa68 bdbe e034 2f3f
000003a0: eac4 d3bd b9ec 29bf 2f61 83be 80a2 4ebd
000003b0: 78ff 21bf 6458 48bd 85b7 bdbe 165b 5d3f
000003c0: d7d6 8dbe 5425 d0be 4d5e 75bf 55ea 93bf
000003d0: 235a 0cbf ae79 a7be 6cae 3cbf 88d5 34bf
000003e0: c51a 95be 016d de3e f792 09bf e937 4dbf
000003f0: 0aad 8cbe 438b 84be 6e83 31bf f887 bebf

sequential/conv2d/BiasAdd/ReadVariableOp f4 [16]
-0.030137338 -0.64677113 -0.08856387 -0.06020767 0.33546528 -0.11227774 -0.061939135 0.017703686
-0.0066386373 -2.2940505 -0.059963953 -0.48818353 0.13158044 -0.06956503 -0.9789625 -0.05987869
00000000: 94e2 f6bc cb92 25bf f960 b5bd 519c 76bd
00000010: 1bc2 ab3e dff1 e5bd e4b3 7dbd 5207 913c
00000020: ed88 d9bb b9d1 12c0 c39c 75bd 31f3 f9be
00000030: 06bd 063e 1c78 8ebd 499d 7abf 5b43 75bd

sequential/conv2d_1/BiasAdd/ReadVariableOp f4 [32]
-0.06227212 0.020515576 -0.053554032 -0.062773496 -0.060101613 -0.060051203 0.77246124 0.062226042
0.07812447 -0.64311224 0.03466135 0.6767797 -0.060232192 0.05088302 -0.051538263 -0.07231394
0.21617386 -0.06205977 -0.09296415 -0.08912846 -0.045861743 0.7794592 -0.070150845 -0.05466849
-0.07849147 -0.32756922 0.13508087 -0.015318345 -0.101466306 0.06727119 -0.06562902 -0.060128637
00000000: 0d11 7fbd 4810 a83c 795b 5bbd 648f 80bd
00000010: 1c2d 76bd 40f8 75bd 05c0 453f bce0 7e3d
00000020: b9ff 9f3d 01a3 24bf 0ff9 0d3d 6f41 2d3f
00000030: 08b6 76bd b76a 503d c919 53bd 5519 94bd
00000040: ae5c 5d3e 6332 7ebd fd63 bebd fb88 b6bd
00000050: 86d9 3bbd a38a 473f 3fab 8fbd 11ec 5fbd
00000060: 23c0 a0bd 27b7 a7be a452 0a3e ccf9 7abc
00000070: 91cd cfbd 7ac5 893d 8268 86bd 7249 76bd

sequential/conv2d_2/BiasAdd/ReadVariableOp f4 [64]
0.53100824 -0.05733449 -0.7891009 -0.39057046 -0.7348704 -0.28230467 -0.45426193 -0.34625813
-0.12474842 -0.48745963 -0.7306089 -0.68971515 0.24557257 -0.52188534 -1.4228759 -0.120513916
-1.2321218 -0.46684116 -1.4547086 0.8093609 -0.00659533 -0.1335294 -0.51145154 -0.15487671
0.19636436 -0.13965936 -1.9232968 -0.19477913 -0.8234077 -0.64646 -0.6403371 -0.66924703
0.06779462 -0.37826324 -0.54260415 0.21305086 -0.070740834 -0.32664907 -0.16668177 -0.5504546
-0.72224647 -0.25686988 -0.4818712 -0.870175 -0.6667544 -0.58873636 -0.7773051 -0.67989546
0.18015435 -0.7351476 0.53133357 -0.62334883 -1.0722545 -1.4996891 -0.40895218 -0.51206654
0.15445988 0.016800784 -0.7686818 -0.7466164 -1.038424 -0.85572004 -0.9006865 -0.93499386
00000000: 28f0 073f 92d7 6abd 8402 4abf daf8 c7be
00000010: 7720 3cbf 3d8a 90be 0595 e8be bf48 b1be
00000020: 1a7c ffbd 4f94 f9be 2f09 3bbf 2c91 30bf
00000030: 6077 7b3e 479a 05bf cc20 b6bf 00d0 f6bd
00000040: 2bb6 9dbf ce05 efbe e433 babf 4732 4f3f
00000050: a31d d8bb eebb 08be 7dee 02bf 0098 1ebe
00000060: bd13 493e dd02 0fbe 972e f6bf 2e74 47be
00000070: d9ca 52bf 677e 25bf 22ed 23bf c653 2bbf
00000080: e8d7 8a3d b8ab c1be 1be8 0abf 012a 5a3e
00000090: 92e0 90bd 8c3e a7be a0ae 2abe 98ea 0cbf
000000a0: 25e5 38bf 7384 83be d2b7 f6be cac3 5ebf
000000b0: 6bb0 2abf 6db7 16bf 78fd 46bf a10d 2ebf
000000c0: 627a 383e a232 3cbf 7a05 083f ca93 1fbf
000000d0: a33f 89bf d0f5 bfbf 2e62 d1be cb16 03bf
000000e0: bb2a 1e3e cca1 893c 55c8 44bf 4122 3fbf
000000f0: 14eb 84bf 7810 5bbf 6493 66bf c25b 6fbf

sequential/conv2d_3/BiasAdd/ReadVariableOp f4 [64]
-0.07782154 -0.45276457 0.11703928 0.08803544 -0.10636428 0.070510164 -0.4601737 -0.3307088
0.57062787 0.63088834 -0.7019939 -0.14785407 -0.23975573 0.13609071 -0.07860995 -0.04062695
-0.036039695 -0.03943065 -0.05679034 -0.10982516 -0.29807702 0.06085453 -0.27676457 -0.3981891
-0.115698226 0.04159405 -0.81994903 0.040088285 -0.23505118 -0.015669258 -0.07428447 -0.08882501
-0.040259697 -0.010562626 0.6281022 -0.0659586 -0.16445257 0.34778804 -0.06331375 -0.09159449
0.108160384 -0.14591084 -0.02413996 0.3687546 -0.09819498 0.017123627 -0.04698272 -0.024834525
0.02994207 -0.060053743 0.617863 -0.20269464 0.043341987 0.17348424 3.0882158 0.0017962104
-0.044041906 0.08809999 1.364903 0.004987595 -0.06976121 -0.08171476 -0.0904608 -0.07832677
00000000: e660 9fbd c2d0 e7be 4ab2 ef3d ed4b b43d
00000010: 84d5 d9bd a267 903d e39b ebbe aa52 a9be
00000020: ab14 123f e681 213f dfb5 33bf 0f67 17be
00000030: 8782 75be 5d5b 0b3e 41fe a0bd 7268 26bd
00000040: 5c9e 13bd 0982 21bd fd9c 68bd 03ec e0bd
00000050: 8d9d 98be 9a42 793d 16b4 8dbe 71df cbbe
00000060: 31f3 ecbd 865e 2a3d 2ee8 51bf 9d33 243d
00000070: 42b1 70be d15c 80bc 7522 98bd e3e9 b5bd
00000080: 5ae7 24bd dd0e 2dbc 4ecb 203f 4d15 87bd
00000090: 4166 28be 4611 b23e a4aa 81bd e495 bbbd
000000a0: 3183 dd3d a769 15be 2ac1 c5bc 67cd bc3e
000000b0: 731a c9bd d946 8c3c f470 40bd c671 cbbc
000000c0: 1249 f53c eafa 75bd 452c 1e3f 2f8f 4fbe
000000d0: 5e87 313d daa5 313e 54a5 4540 d26e eb3a
000000e0: 4965 34bd c46d b43d 24b5 ae3f fb6e a33b
000000f0: f7de 8ebd 115a a7bd 8343 b9bd c969 a0bd

sequential/dense_1/MatMul;sequential/dense_1/BiasAdd f4 [8]
3.415707 1.8068317 1.5746536 5.149137 1.8227847 1.8607516 1.128418 -1.185812
00000000: f29a 5a40 4346 e73f 408e c93f bbc5 a440
00000010: 0251 e93f 1c2d ee3f 0070 903f b0c8 97bf

sequential/batch_normalization_2/batchnorm/mul_1;sequential/batch_normalization_2/batchnorm/add_1;sequential/dense_1/MatMul;sequential/dense_1/BiasAdd i1 [8, 512] scale=0.055418346 zero_point=0
-0.055418346 0.22167338 0.0 -1.3300403 0.0 -0.055418346 0.0 0.055418346
-0.11083669 0.16625504 0.6096018 0.0 0.11083669 -0.055418346 -0.11083669 0.66502017
-0.33251008 0.0 0.0 -1.0529486 -0.38792843 0.11083669 0.0 -0.66502017
-0.11083669 0.6096018 -0.9421119 -0.6096018 0.0 0.055418346 1.6625503 -0.16625504
-0.22167338 0.0 -0.5541835 0.055418346 0.11083669 0.0 0.0 0.0
0.0 0.0 0.0 0.0 0.11083669 0.055418346 -2.9371724 -0.055418346
0.0 0.0 0.0 -0.27709174 0.0 0.0 0.0 2.549244
0.0 -0.33251008 0.0 -0.44334677 -2.1613154 0.11083669 0.5541835 -0.055418346
0.0 -0.16625504 -0.16625504 -0.16625504 0.0 -0.38792843 0.0 0.055418346
-0.055418346 -0.33251008 0.11083669 0.0 -0.4987651 0.055418346 -0.9975302 -0.16625504
-0.44334677 -4.9876513 0.055418346 0.22167338 1.440877 0.0 0.0 -0.11083669
-0.055418346 0.0 0.0 0.0 0.0 0.0 0.055418346 0.055418346
0.0 0.7204385 2.1613154 -0.44334677 0.0 0.16625504 0.0 0.11083669
0.0 0.16625504 -0.16625504 0.0 -0.6096018 0.055418346 0.0 3.8792841
0.38792843 2.0504787 0.0 0.33251008 0.22167338 0.055418346 0.0 -0.11083669
0.0 0.11083669 0.83127517 0.11083669 0.33251008 0.0 0.0 0.0
-0.5541835 -0.9975302 0.055418346 0.7204385 0.11083669 0.0 0.11083669 -1.0529486
-2.6046622 0.16625504 0.66502017 0.0 0.0 0.0 0.0 -0.11083669
0.0 0.055418346 -0.16625504 0.055418346 0.0 -0.38792843 -0.22167338 0.0
0.16625504 -0.22167338 0.0 -0.055418346 -0.66502017 0.0 0.0 0.055418346
0.0 0.055418346 0.0 -0.22167338 -0.27709174 -0.22167338 -0.66502017 -0.055418346
-0.11083669 0.44334677 0.055418346 0.0 0.33251008 0.055418346 -0.4987651 -0.7204385
5.597253 -0.38792843 0.22167338 0.0 0.0 0.0 0.44334677 1.5517137
0.16625504 0.055418346 0.055418346 0.055418346 -0.055418346 -0.055418346 0.0 -0.055418346
-0.6096018 0.22167338 -0.16625504 0.9975302 0.11083669 0.33251008 0.055418346 -0.33251008
0.055418346 0.27709174 0.055418346 -0.055418346 0.0 0.0 -0.27709174 -1.5517137
-0.38792843 0.66502017 -0.055418346 0.0 0.0 0.0 0.0 0.9975302
0.0 -0.22167338 0.16625504 0.055418346 -0.16625504 -0.27709174 0.0 0.0
0.0 -0.055418346 0.16625504 0.0 0.0 -0.16625504 -0.88669354 -0.22167338
0.0 2.1058972 0.9421119 0.0 -0.83127517 -0.11083669 0.11083669 -0.16625504
0.11083669 0.0 0.0 0.055418346 0.16625504 0.11083669 0.7204385 0.0
-0.16625504 -0.055418346 0.0 0.11083669 0.055418346 0.0 0.11083669 0.38792843
00000000: ff04 00e8 00ff 0001 fe03 0b00 02ff fe0c
00000010: fa00 00ed f902 00f4 fe0b eff5 0001 1efd
00000020: fc00 f601 0200 0000 0000 0000 0201 cbff
00000030: 0000 00fb 0000 002e 00fa 00f8 d902 0aff
00000040: 00fd fdfd 00f9 0001 fffa 0200 f701 eefd
00000050: f8a6 0104 1a00 00fe ff00 0000 0000 0101
00000060: 000d 27f8 0003 0002 0003 fd00 f501 0046
00000070: 0725 0006 0401 00fe 0002 0f02 0600 0000
00000080: f6ee 010d 0200 02ed d103 0c00 0000 00fe
00000090: 0001 fd01 00f9 fc00 03fc 00ff f400 0001
000000a0: 0001 00fc fbfc f4ff fe08 0100 0601 f7f3
000000b0: 65f9 0400 0000 081c 0301 0101 ffff 00ff
000000c0: f504 fd12 0206 01fa 0105 01ff 0000 fbe4
000000d0: f90c ff00 0000 0012 00fc 0301 fdfb 0000
000000e0: 00ff 0300 00fd f0fc 0026 1100 f1fe 02fd
000000f0: 0200 0001 0302 0d00 fdff 0002 0100 0207

sequential/conv2d/Conv2D i1 [16, 5, 5, 3]
-17 -69 55 -16 -90 60 -39 -84
-17 -20 11 56 -87 -119 38 -27
-65 -38 -57 14 -10 -56 -65 20
-91 -57 59 -61 10 54 -53 -10
2 2 -127 0 20 -37 30 -83
-50 -21 -119 -110 20 -20 -59 -85
5 -27 10 -44 -58 57 -37 -122
53 -7 -49 0 -46 -22 -100 -6
-63 -11 -107 -97 -73 13 -39 -7
22 -29 -11 86 -76 -37 74 -77
1 50 -90 -7 5 -109 -8 -31
-127 -18 116 -16 3 105 -32 12
79 -57 22 28 -66 24 -27 -103
23 124 -16 8 115 -13 35 58
-17 46 11 -68 33 -39 -80 38
114 11 36 102 18 45 64 -20
46 0 -40 54 -38 -64 62 105
-7 27 66 -4 40 41 -23 65
-3 -45 65 -47 -37 69 -42 1
-70 -6 -28 -60 -27 -15 -84 -20
-11 -127 -104 -96 -17 -27 5 -54
-29 -49 -39 -37 -48 -82 -56 -26
-53 -63 -65 6 -45 -13 -48 -8
-24 -28 -22 -20 -77 -14 -35 -70
-20 -50 63 -42 1 -44 -39 4
-58 -6 -34 -28 -42 -45 -41 -22
-51 41 -52 -20 -42 -53 -49 -24
-50 -26 -76 -3 -29 -56 -10 -11
55 -104 11 -63 -33 -32 -39 -44
-25 -65 16 32 -118 -28 21 32
-86 -127 10 -2 -81 -3 -74 36
1 -86 -42 31 3 -115 -41 -76
00000000: efbb 37f0 a63c d9ac efec 0b38 a989 26e5
00000010: bfda c70e f6c8 bf14 a5c7 3bc3 0a36 cbf6
00000020: 0202 8100 14db 1ead ceeb 8992 14ec c5ab
00000030: 05e5 0ad4 c639 db86 35f9 cf00 d2ea 9cfa
00000040: c1f5 959f b70d d9f9 16e3 f556 b4db 4ab3
00000050: 0132 a6f9 0593 f8e1 81ee 74f0 0369 e00c
00000060: 4fc7 161c be18 e599 177c f008 73f3 233a
00000070: ef2e 0bbc 21d9 b026 720b 2466 122d 40ec
00000080: 2e00 d836 dac0 3e69 f91b 42fc 2829 e941
00000090: fdd3 41d1 db45 d601 bafa e4c4 e5f1 acec
000000a0: f581 98a0 efe5 05ca e3cf d9db d0ae c8e6
000000b0: cbc1 bf06 d3f3 d0f8 e8e4 eaec b3f2 ddba
000000c0: ecce 3fd6 01d4 d904 c6fa dee4 d6d3 d7ea
000000d0: cd29 ccec d6cb cfe8 cee6 b4fd e3c8 f6f5
000000e0: 3798 0bc1 dfe0 d9d4 e7bf 1020 8ae4 1520
000000f0: aa81 0afe affd b624 01aa d61f 038d d7b4

sequential/conv2d_1/Conv2D i1 [32, 5, 5, 16]
-49 -93 -5 -66 -26 -71 -77 14
-40 -55 105 -34 63 -30 -41 2
-6 -44 -49 -10 -20 -106 20 -57
-8 6 54 -2 -12 -47 -90 111
-10 -32 -89 -71 -91 -61 -80 -5
-2 -60 -56 -117 -45 -96 -34 92
-91 -120 5 -70 -95 -53 14 -54
1 -19 104 -101 45 -32 -122 82
-17 -58 -59 23 -46 -64 72 -103
17 -114 62 -96 -31 -30 -92 12
-65 -29 -45 68 -75 -97 56 -73
9 -58 77 -64 66 -109 -23 54
-7 -22 -63 -102 -80 -74 75 -12
-90 -6 8 -108 -29 -50 -59 47
-53 -53 -87 -43 -13 -40 38 -6
-40 -122 -43 -46 39 -45 -75 44
-45 -104 -86 60 -23 -99 28 4
24 -102 44 -62 -48 -6 -121 -110
-13 -25 84 95 -104 -26 39 -88
-30 -42 55 -103 -4 -95 -18 -13
-62 -63 -50 32 -76 -50 78 -4
29 -15 -65 2 2 -8 -60 45
1 -32 -63 -1 -58 -66 47 -88
-58 -67 -7 -100 68 -16 -118 84
17 -24 -32 9 -2 -9 85 -100
-37 -127 -4 -39 49 -50 -89 -50
-100 -38 -84 52 -23 -53 44 -83
32 -109 -5 -58 -37 -55 -57 -112
-91 -49 53 101 -41 -76 93 -90
-6 -56 23 -100 21 -77 -26 4
0 -87 -56 95 -41 -5 16 -95
20 -13 -55 -35 -39 -77 -103 9
00000000: cfa3 fbbe e6b9 b30e d8c9 69de 3fe2 d702
00000010: fad4 cff6 ec96 14c7 f806 36fe f4d1 a66f
00000020: f6e0 a7b9 a5c3 b0fb fec4 c88b d3a0 de5c
00000030: a588 05ba a1cb 0eca 01ed 689b 2de0 8652
00000040: efc6 c517 d2c0 4899 118e 3ea0 e1e2 a40c
00000050: bfe3 d344 b59f 38b7 09c6 4dc0 4293 e936
00000060: f9ea c19a b0b6 4bf4 a6fa 0894 e3ce c52f
00000070: cbcb a9d5 f3d8 26fa d886 d5d2 27d3 b52c
00000080: d398 aa3c e99d 1c04 189a 2cc2 d0fa 8792
00000090: f3e7 545f 98e6 27a8 e2d6 3799 fca1 eef3
000000a0: c2c1 ce20 b4ce 4efc 1df1 bf02 02f8 c42d
000000b0: 01e0 c1ff c6be 2fa8 c6bd f99c 44f0 8a54
000000c0: 11e8 e009 fef7 559c db81 fcd9 31ce a7ce
000000d0: 9cda ac34 e9cb 2cad 2093 fbc6 dbc9 c790
000000e0: a5cf 3565 d7b4 5da6 fac8 179c 15b3 e604
000000f0: 00a9 c85f d7fb 10a1 14f3 c9dd d9b3 9909

sequential/conv2d_2/Conv2D i1 [64, 3, 3, 32]
5 -1 -60 -4 -4 -24 9 10
81 127 -8 56 9 3 2 -1
115 -3 37 9 -4 99 0 9
10 21 37 -8 -6 82 4 -4
7 2 -52 -9 -3 -20 -21 1
20 42 -9 7 8 -15 -1 -5
59 -4 36 -3 -9 50 -2 6
5 23 12 0 -8 34 4 -9
2 -3 -33 -4 -1 -22 -58 -1
-66 -62 -7 -63 10 -11 -2 -4
21 -8 -2 -4 -8 -17 -1 6
3 17 -8 -5 -3 1 6 2
6 -3 -24 -9 2 -25 -21 -14
9 49 -4 17 8 -26 3 -5
16 -3 -45 2 -7 25 0 10
3 23 -31 -1 -6 -2 4 -2
6 -1 -20 -7 -3 -19 -14 -3
-17 -4 -9 -6 11 -19 -1 -8
-16 -8 -42 -2 -2 7 2 7
10 22 -46 -1 -7 -28 5 -7
8 2 -15 -4 0 -22 -32 1
-70 -77 -4 -54 12 -11 2 -3
-61 -4 -70 -7 -7 -41 -1 9
11 18 -57 -4 -5 -53 5 -10
5 -2 42 -8 -1 -21 -14 -2
-40 -24 -7 -11 8 -5 -2 -3
-36 -4 -72 -9 -5 -46 3 11
9 21 -47 -5 -2 -25 7 1
7 -3 37 -10 -4 -21 20 36
-42 -40 -4 -4 9 36 3 -8
-45 -4 -71 -8 -7 -35 -3 4
9 19 -39 -2 -7 -33 3 4
00000000: 05ff c4fc fce8 090a 517f f838 0903 02ff
00000010: 73fd 2509 fc63 0009 0a15 25f8 fa52 04fc
00000020: 0702 ccf7 fdec eb01 142a f707 08f1 fffb
00000030: 3bfc 24fd f732 fe06 0517 0c00 f822 04f7
00000040: 02fd dffc ffea c6ff bec2 f9c1 0af5 fefc
00000050: 15f8 fefc f8ef ff06 0311 f8fb fd01 0602
00000060: 06fd e8f7 02e7 ebf2 0931 fc11 08e6 03fb
00000070: 10fd d302 f919 000a 0317 e1ff fafe 04fe
00000080: 06ff ecf9 fded f2fd effc f7fa 0bed fff8
00000090: f0f8 d6fe fe07 0207 0a16 d2ff f9e4 05f9
000000a0: 0802 f1fc 00ea e001 bab3 fcca 0cf5 02fd
000000b0: c3fc baf9 f9d7 ff09 0b12 c7fc fbcb 05f6
000000c0: 05fe 2af8 ffeb f2fe d8e8 f9f5 08fb fefd
000000d0: dcfc b8f7 fbd2 030b 0915 d1fb fee7 0701
000000e0: 07fd 25f6 fceb 1424 d6d8 fcfc 0924 03f8
000000f0: d3fc b9f8 f9dd fd04 0913 d9fe f9df 0304

sequential/conv2d_3/Conv2D i1 [64, 3, 3, 64]
-73 -21 0 -5 -37 30 -20 -35
-17 -21 -16 -17 -46 2 -3 -58
-20 -35 -36 -53 -64 0 -33 1
-13 -18 -20 -9 -93 7 -13 -10
-36 -49 -36 -54 -16 -62 -43 -38
-12 -19 -37 10 -25 -31 -19 -39
-9 -43 -42 -64 18 -34 -23 -109
-77 -7 7 -18 23 -33 -20 -37
-44 -56 5 -22 -7 17 -45 -37
-27 -6 -18 -2 -48 8 8 -58
-15 -41 -76 -37 -87 -26 -4 18
-16 -25 -42 -45 -89 -17 -2 0
-32 -31 -56 -49 -21 -46 -85 -43
24 -24 -41 1 -65 -63 -37 -25
-2 -48 -27 -98 -16 -10 -36 -102
-80 -63 9 -7 -10 -43 -3 -26
-72 -75 -14 -30 -7 21 -28 -13
-33 -7 -11 -9 -27 12 12 -48
-32 -18 -73 -39 -101 -8 -1 0
1 -3 -19 -33 -87 0 13 -21
-35 -23 -68 -46 -35 -60 -61 -63
30 -8 -55 18 -50 -56 -36 -26
-9 -51 -35 -58 -20 -6 -14 -122
-67 -19 2 -19 -45 -48 -14 -48
-65 -48 -1 -9 -21 10 -47 -16
-30 -11 -7 -17 -29 11 28 -30
-26 -17 -45 -55 -72 -14 -14 21
-8 -33 -7 -12 -59 -21 -17 -24
-35 -29 -40 -46 -28 -23 -47 -47
12 -20 -54 -15 -56 -60 -29 -25
-15 -41 -25 -55 22 -11 -14 -127
-59 -14 4 -26 -7 -31 -12 -37
00000000: b7eb 00fb db1e ecdd efeb f0ef d202 fdc6
00000010: ecdd dccb c000 df01 f3ee ecf7 a307 f3f6
00000020: dccf dcca f0c2 d5da f4ed db0a e7e1 edd9
00000030: f7d5 d6c0 12de e993 b3f9 07ee 17df ecdb
00000040: d4c8 05ea f911 d3db e5fa eefe d008 08c6
00000050: f1d7 b4db a9e6 fc12 f0e7 d6d3 a7ef fe00
00000060: e0e1 c8cf ebd2 abd5 18e8 d701 bfc1 dbe7
00000070: fed0 e59e f0f6 dc9a b0c1 09f9 f6d5 fde6
00000080: b8b5 f2e2 f915 e4f3 dff9 f5f7 e50c 0cd0
00000090: e0ee b7d9 9bf8 ff00 01fd eddf a900 0deb
000000a0: dde9 bcd2 ddc4 c3c1 1ef8 c912 cec8 dce6
000000b0: f7cd ddc6 ecfa f286 bded 02ed d3d0 f2d0
000000c0: bfd0 fff7 eb0a d1f0 e2f5 f9ef e30b 1ce2
000000d0: e6ef d3c9 b8f2 f215 f8df f9f4 c5eb efe8
000000e0: dde3 d8d2 e4e9 d1d1 0cec caf1 c8c4 e3e7
000000f0: f1d7 e7c9 16f5 f281 c5f2 04e6 f9e1 f4db

sequential/dense/MatMul i1 [512, 64] scale=0.04573038 zero_point=0
0.2286519 0.5487645 0.32011265 -0.13719113 0.0 0.13719113 0.9146076 0.13719113
-1.5548328 0.32011265 -0.8231468 -0.27438226 0.09146076 0.09146076 0.18292151 0.18292151
-0.04573038 0.5030342 -0.4115734 -0.27438226 0.27438226 -0.18292151 0.0 1.7834848
-0.4115734 -0.36584303 0.96033794 -0.6402253 0.9146076 -0.32011265 -0.8231468 -0.13719113
-1.097529 0.6402253 -0.8688772 -0.18292151 0.96033794 0.04573038 -0.5030342 0.27438226
-0.5030342 1.2347202 0.96033794 -0.59449494 0.5030342 0.27438226 0.2286519 0.73168606
-0.27438226 0.13719113 -0.27438226 0.6859557 0.32011265 0.5487645 1.2804506 -0.04573038
1.7834848 -0.09146076 0.6402253 -0.09146076 1.0517987 0.09146076 -0.59449494 0.36584303
-0.8688772 0.6859557 0.32011265 -0.2286519 -0.6859557 -0.32011265 -0.7774164 -0.13719113
-0.2286519 -0.27438226 0.2286519 -0.32011265 -0.8688772 0.2286519 0.36584303 0.13719113
-0.18292151 0.2286519 -0.18292151 -0.73168606 -0.4573038 0.18292151 -0.8688772 -0.36584303
0.09146076 -0.59449494 0.36584303 -0.2286519 -0.04573038 -0.4573038 0.4573038 0.27438226
-0.13719113 -0.18292151 -0.27438226 0.4573038 0.4115734 0.32011265 0.36584303 0.04573038
0.0 0.13719113 -0.96033794 0.13719113 -0.09146076 -0.04573038 -0.18292151 0.32011265
-0.27438226 0.09146076 -0.27438226 0.0 -2.195058 0.27438226 -0.27438226 -0.27438226
-0.18292151 0.13719113 -0.36584303 -0.09146076 -0.5030342 -0.13719113 0.0 -0.4573038
-0.18292151 1.1889899 -0.2286519 0.36584303 -0.2286519 0.59449494 -1.0060683 -0.36584303
-0.4573038 -0.18292151 -0.4115734 -0.6402253 -0.04573038 -0.32011265 -0.09146076 -0.13719113
0.4573038 0.2286519 0.18292151 0.5487645 -0.4573038 -0.18292151 0.59449494 -1.4176418
0.4115734 0.96033794 0.5030342 -0.13719113 0.2286519 0.04573038 0.2286519 0.32011265
0.32011265 0.09146076 0.5030342 -0.04573038 0.5487645 -0.32011265 1.3719114 0.0
0.8231468 0.09146076 0.4573038 -0.2286519 -0.13719113 -0.2286519 -0.04573038 -0.13719113
0.09146076 0.13719113 -0.59449494 -0.96033794 -0.59449494 0.04573038 -0.8231468 0.09146076
0.0 -0.36584303 -0.32011265 0.5030342 0.7774164 0.73168606 -0.36584303 0.4573038
-0.36584303 -0.04573038 -0.09146076 0.32011265 -0.04573038 0.04573038 -0.13719113 0.04573038
-0.4573038 -0.04573038 -0.04573038 -0.4573038 -0.13719113 0.04573038 -0.13719113 -0.04573038
0.13719113 -0.13719113 0.2286519 -0.8231468 -0.13719113 -0.32011265 -1.097529 -0.04573038
0.36584303 -0.2286519 -0.04573038 -0.04573038 0.18292151 -0.18292151 0.04573038 -0.18292151
0.0 0.0 0.18292151 -0.18292151 0.04573038 0.09146076 -0.04573038 0.0
-0.04573038 0.13719113 -0.27438226 0.04573038 0.2286519 0.0 0.13719113 -0.18292151
-0.04573038 0.59449494 -0.4115734 -0.4573038 -0.4573038 -0.18292151 0.2286519 -0.13719113
0.2286519 -0.09146076 0.13719113 -0.04573038 -0.13719113 -0.18292151 -0.2286519 -0.59449494
00000000: 050c 07fd 0003 1403 de07 eefa 0202 0404
00000010: ff0b f7fa 06fc 0027 f7f8 15f2 14f9 eefd
00000020: e80e edfc 1501 f506 f51b 15f3 0b06 0510
00000030: fa03 fa0f 070c 1cff 27fe 0efe 1702 f308
00000040: ed0f 07fb f1f9 effd fbfa 05f9 ed05 0803
00000050: fc05 fcf0 f604 edf8 02f3 08fb fff6 0a06
00000060: fdfc fa0a 0907 0801 0003 eb03 feff fc07
00000070: fa02 fa00 d006 fafa fc03 f8fe f5fd 00f6
00000080: fc1a fb08 fb0d eaf8 f6fc f7f2 fff9 fefd
00000090: 0a05 040c f6fc 0de1 0915 0bfd 0501 0507
000000a0: 0702 0bff 0cf9 1e00 1202 0afb fdfb fffd
000000b0: 0203 f3eb f301 ee02 00f8 f90b 1110 f80a
000000c0: f8ff fe07 ff01 fd01 f6ff fff6 fd01 fdff
000000d0: 03fd 05ee fdf9 e8ff 08fb ffff 04fc 01fc
000000e0: 0000 04fc 0102 ff00 ff03 fa01 0500 03fc
000000f0: ff0d f7f6 f6fc 05fd 05fe 03ff fdfc fbf3
